maas/ext/maas/scripts/optimized/GSM8K/train/round_1/GSM8K_controller_sample4.pth (torch, 548154 bytes, 16 tensors)

layers.0.operator_encoder.weight f4 [32, 384]
000000 d0 83 10 3d 9f 6a 05 3d 28 37 cc 3c 2b b2 fe 3c
       0.035281956 0.032572385 0.024928644 0.031090816
000010 f9 14 8e 3c 4f ee 9d 3b 53 97 ec 3c 4f ea 1d 3d
       0.017343985 0.0048196684 0.02888075 0.038553532
000020 bf 0e b7 bc 47 e4 83 bb c7 e6 df 3b 16 72 e2 bc
       -0.022345899 -0.0040250155 0.0068329307 -0.027642291
000030 b3 f7 09 3d a5 e0 3d bd 8d 34 04 3c 93 3b 82 bc
       0.03368349 -0.046356816 0.00806917 -0.015897548
000040 8c 04 2b 3b 6f db 50 3d e7 5f a3 bc 5a 2a ea 3c
       0.002609524 0.05099052 -0.01994319 0.028584648
000050 97 4c 67 3c a2 46 22 3b c5 b8 e4 3c f8 41 89 3c
       0.014117382 0.0024761339 0.027920136 0.01675509
000060 a8 fd 62 bc 90 c6 12 bb 5d 28 1e bd fe ab 03 bd
       -0.013854422 -0.0022396185 -0.038612712 -0.032146446
000070 57 da 6c 3c 25 77 db 3c 94 1c 2d 3d c3 7d 26 3d
       0.014456353 0.026790211 0.042263582 0.04064728
000080 77 58 0c 3d bb c1 c3 bc 85 fa bd 3b 48 f8 95 bb
       0.034264054 -0.023896089 0.0057976865 -0.0045767166
000090 62 4b 1c bd b8 db eb 3c 6d 72 f1 39 ef cb 39 3d
       -0.03815783 0.028791294 0.00046052356 0.0453605
0000a0 8c 6b d2 b9 e9 5f 31 3d ac 3f 47 3d 2b dd 04 bd
       -0.0004013445 0.043304358 0.048644707 -0.032437485
0000b0 97 e1 1b 3d 47 e5 2f 3b 21 1d e3 bc 43 02 b5 3c
       0.038056936 0.002683954 -0.02772385 0.022095805
0000c0 3c 1e 0c 3d 3b 7e eb 3c f0 b5 34 3d 13 70 85 3c
       0.03420852 0.028746715 0.04411882 0.016288793
0000d0 04 e4 ae bc d7 d9 39 bd 63 1a 07 bc 70 c2 d8 bb
       -0.02134896 -0.045373764 -0.008246037 -0.0066149756
0000e0 c2 32 98 3c d0 da d5 bb bb 63 ac bc 1c b0 7f 3c
       0.01857889 -0.0065263286 -0.021043649 0.015605953
0000f0 78 7e d6 3b 97 78 e3 bb d7 9f 1e bd c4 0b 28 bd
       0.006545838 -0.0069418657 -0.038726654 -0.041026846
000100 2d 10 49 bd 84 7e 23 bd cd af e5 ba 80 31 50 bd
       -0.049087692 -0.039915577 -0.0017523706 -0.050828457
000110 9f 2e b9 bc 62 c9 c3 3c f5 55 1a bd 7e 2e 36 bb
       -0.022605238 0.023899738 -0.03767963 -0.0027798708
000120 5b 7b b1 3c 8a c7 b3 3c 40 43 43 3c 83 05 80 bb
       0.021665266 0.021945734 0.011917889 -0.003906907
000130 c3 3b 19 ba 51 2f 03 bd be a2 a2 3c 7e 42 d7 3c
       -0.0005845392 -0.032027546 0.019852992 0.026276823
000140 0c 3c 4a 3d a7 65 4c bd 15 50 e3 3c 64 e8 0d 3d
       0.04937367 -0.04990163 0.027748147 0.034645453
000150 54 c1 a5 bc 5f 29 e1 bc f0 a0 4c bd 68 da 26 3c
       -0.020233788 -0.027485548 -0.04995817 0.010183908
000160 95 58 00 bd 0e d8 c8 bc 68 08 3c bc ad 4e 85 bc
       -0.03133448 -0.024517085 -0.011476614 -0.016272867
000170 d6 1e 36 bd 2d 7a 0f 3d df 60 71 3b 88 da 48 3d
       -0.044463 0.035028625 0.0036831421 0.049036533
000180 8a 7d cc bc 1a 64 3c bd b6 e2 b4 bc 25 60 46 bd
       -0.024962205 -0.0459939 -0.02208076 -0.048431534
000190 c9 44 9d 3c fa d8 3e bd 94 f1 ce bc 71 12 f0 bc
       0.019197838 -0.046593644 -0.025261678 -0.029305669
0001a0 a6 32 4f 3d 68 b4 17 bc fe 12 33 bd 6b fe 0c 3d
       0.05058541 -0.009259321 -0.043719284 0.03442232
0001b0 11 bd 4e 3d 4c 8c 97 bc 0a 88 ff 3c d2 47 f4 bc
       0.050473277 -0.018499516 0.031192798 -0.029819403
0001c0 83 fb a2 bc 58 dc d0 3c 17 28 13 bd 3f 4a 8a bc
       -0.01989532 0.025495693 -0.035926905 -0.016881106
0001d0 92 03 4a 3b 0a f7 09 bd 7c 15 c4 3c 2e 6a 08 bd
       0.0030824882 -0.03368286 0.023936026 -0.033304386
0001e0 5d 99 45 3d 56 88 06 3c 09 e0 31 bd d9 cf c9 3c
       0.04824196 0.008211216 -0.043426547 0.024635242
0001f0 75 1f 01 3a b3 28 2b bd 33 42 cd 3c 42 52 3d 3d
       0.0004925647 -0.04178686 0.02505598 0.046221025
000200 f1 10 9b 3b 44 33 30 3d 20 d3 fc bc 04 17 bf bb
       0.004732244 0.04301764 -0.030862391 -0.005831601
000210 8a 17 49 3d d3 87 0e bd e1 6f 9e bc 29 67 39 3d
       0.049094714 -0.0347975 -0.019340457 0.045264397
000220 7d 8c 34 bd 40 be 49 3d b9 7e 17 3d 25 ef 72 bc
       -0.044079293 0.049253702 0.036986087 -0.014827524
000230 9e 80 39 3c 95 d9 ae 3c 56 56 d9 3c d0 7f 50 3c
       0.011322169 0.021343986 0.026530426 0.012725785
000240 85 44 25 bd a5 c0 36 3d 08 0e 40 bd 0e d7 17 bc
       -0.04034855 0.044617314 -0.04688838 -0.009267582
000250 b0 56 33 3b 6c b0 11 3d dd 87 30 3c 13 2e de 3c
       0.0027364902 0.03556864 0.01077458 0.02712158
000260 f3 c8 26 3d 3c 16 47 bd ce 79 39 bd 2f 70 4b 3d
       0.040718984 -0.04860519 -0.045282178 0.049667533
000270 5d 05 1e bd f2 eb 3e 3d 32 86 a1 bc cf d6 b9 3c
       -0.038579334 0.046611734 -0.01971731 0.022685437
000280 a2 5e 0a 3c 24 37 c3 3c 10 82 a5 bc ff 18 9a 3c
       0.008445414 0.023830004 -0.02020362 0.018810747
000290 74 a5 3c bc 59 dd 88 bb d8 91 bc bc 98 dd d9 3c
       -0.0115140565 -0.0041767773 -0.023018762 0.026594922
0002a0 52 99 8e 3c 22 c6 b0 3c 0e 3d 2a bd 7d 66 ec bc
       0.017407093 0.021578852 -0.041562133 -0.028857464
0002b0 39 6b eb 3c 3e 90 d5 3c 78 f5 45 3c 95 77 68 3c
       0.028737651 0.026069757 0.01208245 0.014188667
0002c0 0c fd 26 bd e9 eb 02 3d 11 b9 a3 bb 0d dd 1c bd
       -0.040768668 0.031963263 -0.004996427 -0.038296748
0002d0 4c f9 a0 bc 78 0a 18 bd 9a c1 a8 bb 89 9f 8d 3c
       -0.019650124 -0.03711936 -0.005150032 0.017287986
0002e0 2d e7 75 bc 62 4b 8f bc 54 79 46 bd ab 26 42 bd
       -0.01500873 -0.017492 -0.04845555 -0.047400158
0002f0 a1 5d 07 bd 84 05 22 bd 0a 5b ad 3b 3f 73 0c bc
       -0.033048276 -0.03955604 0.0052903937 -0.008572399
000300 db 72 28 bd 64 65 9a bc 22 63 30 bd 70 79 a1 bb
       -0.04112516 -0.018847175 -0.04306329 -0.0049278066
000310 c0 c1 7b bb 25 67 4b bd e9 6d 2f bd 87 25 42 3c
       -0.0038415045 -0.049658913 -0.042829428 0.0118497675
000320 5f d4 47 bd 83 0d ba ba e3 a2 36 3d b2 23 c0 bc
       -0.048786517 -0.0014194701 0.044588935 -0.02345452
000330 9f 4d a3 bc 5d 34 ab 3c 1c f1 df bc e9 22 23 3c
       -0.019934474 0.020898992 -0.02733665 0.009957054
000340 e9 45 ee bc 63 95 8b 3c c6 76 09 3d 97 60 4d 3c
       -0.02908607 0.017039007 0.033560537 0.012535236
000350 97 8e 9d 3c 16 20 8d 3c 71 3d 0f bd 19 df de 3b
       0.019233031 0.017227214 -0.034970704 0.0068014977
000360 68 2b 23 bd 75 60 44 3d 1d 60 8a ba 55 7a 3e bd
       -0.039836317 0.04794355 -0.0010557208 -0.046503384
000370 46 a0 7b bb d5 7f 6d 3c 7b 81 d6 bc b6 3e a6 bc
       -0.003839509 0.01449581 -0.026184788 -0.020293575
000380 92 2f fc 39 81 a6 ad bc 9b 51 27 bd 25 5f 9c 3c
       0.00048100628 -0.02119756 -0.04084931 0.019088337
000390 25 2e 57 3c 18 24 ed 3c 83 48 41 ba d9 b8 7a bc
       0.01313356 0.028947875 -0.0007373171 -0.01530286
0003a0 ee 25 24 3d aa a7 ec bc 7c ca 19 3d a3 59 0b 3d
       0.040075235 -0.028888542 0.03754662 0.03402103
0003b0 ad d5 24 3d 8e be 22 3d 4d ac 81 3c 6c 3a a7 bc
       0.04024284 0.03973251 0.01582923 -0.0204136
0003c0 23 28 4a bd 00 ef 41 3d db e8 96 3c 39 80 74 bc
       -0.049354684 0.04734707 0.018421581 -0.014923149
0003d0 54 a5 30 bd 55 fc 3e bd 21 f4 98 bc bf 0f ac 3b
       -0.04312642 -0.04662736 -0.018671097 0.0052509005
0003e0 47 37 72 3c 2f 05 f0 3c cb 58 25 bd bb 50 b7 3c
       0.014783687 0.029299347 -0.040367883 0.022377362
0003f0 96 e3 46 3d 0d 5c 9a 3c e4 a9 6a bc 32 b7 02 bd
       0.048556887 0.018842721 -0.014322732 -0.03191299

layers.0.operator_encoder.bias f4 [32]
000000 53 95 49 3d 0c 10 a5 bb 44 08 00 3d 7e 87 a7 bc
       0.049214672 -0.0050373133 0.031257883 -0.02045035
000010 ec 1f 11 3d c3 43 00 3d be b5 31 3d 3b 10 8c 3c
       0.035430834 0.031314623 0.043386213 0.017097583
000020 7a 3e 1d bd 84 e4 dc bc 37 98 04 3a 32 6e 09 3d
       -0.03838966 -0.026964433 0.0005058082 0.033552356
000030 2c 99 44 3d 24 a9 1e 3d 6b d6 03 3d 1a 71 23 3d
       0.04799764 0.038735524 0.032186907 0.039902784
000040 95 13 e9 bb e2 33 25 3d a2 fb 3e bd 28 15 3e bd
       -0.00711293 0.040332682 -0.046626695 -0.046406895
000050 76 e3 83 bc 3c d6 ef bc 18 f2 06 3d 05 75 3c 3d
       -0.016099673 -0.02927696 0.032945722 0.046010036
000060 88 4b 35 3c 49 6c 01 3c f6 6e f8 3a 2c 9b a5 bc
       0.011065371 0.007899352 0.0018953967 -0.020215593
000070 a9 22 01 3d 2c f5 82 bc f3 f9 a0 bc f8 d5 26 3c
       0.031527195 -0.015986048 -0.019650435 0.01018285

layers.0.query_encoder.weight f4 [32, 384]
000000 a2 e8 42 bd cb 1f 96 bc ab 7c 02 3d eb 85 12 3d
       -0.047585137 -0.018325707 0.031857174 0.035772245
000010 04 2f d5 bc e9 e2 21 bd 38 fc c9 bc 01 ba 6f bc
       -0.026023395 -0.03952304 -0.0246564 -0.014631749
000020 cc 4b 28 3d e6 c1 36 bd 8a 41 4c bc 04 6d a9 bc
       0.04108791 -0.04461851 -0.012466798 -0.020681866
000030 6d a2 a7 bc 33 d8 46 3c f5 a1 fc bc 28 5e 87 3a
       -0.020463193 0.012136507 -0.030838946 0.0010327743
000040 a7 f3 50 3b 61 1b 64 bc 58 bb 33 bc 6c ca 01 3d
       0.003188351 -0.013922543 -0.010969959 0.031687185
000050 ce 6f 8f bc 2b 93 4a 3c 45 a4 04 bd 97 4c 24 bd
       -0.017509367 0.012364189 -0.032383222 -0.040112104
000060 27 57 05 3d 9b 6f 9f 3c ef 6e 20 bd 85 40 90 3c
       0.032553818 0.019462397 -0.039168295 0.01760889
000070 a2 ab b1 3c 6e d2 17 bd fd 67 f2 bb 1d 8a 10 3d
       0.021688286 -0.037065916 -0.0073976503 0.035287965
000080 2f 14 04 bd 84 2c 91 bc a1 94 ff bb c3 a3 36 3b
       -0.03224581 -0.017721422 -0.0077997004 0.0027868606
000090 02 7b 29 bd fd 44 38 3b 32 ff a8 3c 59 0f 68 3c
       -0.041377075 0.0028117292 0.0206295 0.014163815
0000a0 5e c2 3c bd 03 16 4e 3d 6b 91 90 bc f0 99 ff bb
       -0.0460838 0.05031396 -0.017647466 -0.007800333
0000b0 03 f2 8f 3c 78 7d ee bc fd 99 84 3c 6f 45 95 3c
       0.017571455 -0.029112563 0.016186709 0.018221585
0000c0 a2 ff ab bc 5c 87 00 3d 48 0a 29 3d 7c 0c 0f bd
       -0.020995919 0.03137909 0.04126957 -0.034924015
0000d0 e8 1d 3c bd 62 db 28 3d f6 4e 4f 3d 19 8d a5 bc
       -0.04592696 0.041224845 0.050612412 -0.020208882
0000e0 0b b1 d9 3c e5 e3 cc bb 08 eb 06 3b 7f c3 0f bd
       0.026573678 -0.006252753 0.0020586867 -0.03509855
0000f0 42 1e 9c bc b5 32 2a bd 52 b5 38 bd 75 2b 1e 3d
       -0.019057397 -0.041552264 -0.045094796 0.038615663
000100 76 15 88 b9 d4 2c 33 bd bb cb 38 3d a5 ce a6 3c
       -0.0002595593 -0.043743923 0.045116168 0.020362208
000110 be e3 f0 bb df 92 11 bd a2 af 38 3d 15 17 a8 3c
       -0.0073513677 -0.035540458 0.04508937 0.020518819
000120 f6 a2 40 3d a8 8a 59 bc f3 c2 8e bb 5a 06 e0 3c
       0.04703041 -0.013277687 -0.004356736 0.027346779
000130 eb 1f dc 3c fd 29 1a bd 88 40 84 3c 95 06 40 3c
       0.026870688 -0.0376377 0.016144052 0.011720319
000140 f2 73 47 3d 69 b0 2a bd ce 44 04 bc 89 3b e2 bc
       0.04869456 -0.041672144 -0.008073045 -0.02761628
000150 ee fe f9 bc 98 04 ba bc bc 04 3b bc f4 b7 04 bb
       -0.030517068 -0.022707269 -0.011414703 -0.0020251246
000160 f9 23 16 3d 6c 54 37 3d 76 9e 06 3d 05 d6 18 3d
       0.0366554 0.044758245 0.032865964 0.03731348
000170 31 90 2e 3d 6b 4c a5 bc 0d c2 34 bc d9 80 2b bd
       0.04261798 -0.02017804 -0.011032593 -0.041870926
000180 1e 5c c6 3b e5 da 3c 3d 47 77 83 3b b8 f8 d4 3c
       0.0060534617 0.04610719 0.0040120217 0.025997505
000190 56 5c cb 3c 61 4b 07 ba 5f 0f 39 3d 7f 21 02 3c
       0.024824303 -0.00051610736 0.045180675 0.007942556
0001a0 6c e8 49 bd 29 87 30 3d a0 72 e5 3c 22 0c 3b bc
       -0.04929392 0.04309765 0.028008759 -0.011416467
0001b0 51 b5 63 bc 0d 8a 07 bd cc cd d6 bc c9 a5 e5 bc
       -0.01389821 -0.03309064 -0.026221178 -0.028033154
0001c0 40 dc b6 3c 26 b8 0e bd 41 72 28 3d 7c 7a 4e bc
       0.02232182 -0.034843586 0.041124586 -0.012602445
0001d0 fc ef 85 3c 35 45 0f bd 10 0d ee bc 8b 24 4c 3d
       0.016349785 -0.03497811 -0.029058963 0.049839538
0001e0 f5 9c 92 3c f5 b7 1c 3d c7 34 19 3d a5 dc ad 3c
       0.017897109 0.038261373 0.037403848 0.021223376
0001f0 dc 38 05 3b 88 dc 16 bd 65 ba 17 bd 13 78 1c bc
       0.002032808 -0.03683141 -0.037042994 -0.009550112
000200 cb 6f 13 bd 21 6e b5 3c 20 86 e7 bc 74 5b 47 3d
       -0.035995286 0.02214724 -0.028262198 0.0486712
000210 33 40 ec bc ee 67 15 3d a9 91 2b 3d 30 96 c8 bb
       -0.028839206 0.03647607 0.04188696 -0.0061214194
000220 3a 94 98 3c bd 9c 2a 3d 3e 48 d8 bc 25 cd 06 3d
       0.018625367 0.041653384 -0.026401635 0.032910485
000230 6c 68 a5 3c 55 7c bd 3c 3f f8 e7 bc a0 07 8f bc
       0.020191394 0.023130575 -0.028316615 -0.01745969
000240 e1 04 b5 ba f6 a2 dd 3b b8 01 3c bd 62 66 4a 3d
       -0.0013810658 0.006763811 -0.045900077 0.049414046
000250 61 52 4a 3d e4 58 14 3a 65 dd 46 bd de 8f 35 bd
       0.04939497 0.00056589977 -0.048550982 -0.044326656
000260 62 d1 0c bd a0 b1 40 3d 38 f9 3c bd d0 e3 9c 3c
       -0.03437937 0.047044396 -0.04613611 0.019151598
000270 f7 1a 66 39 30 05 0f 3d f3 d2 d6 3c da 09 41 bd
       0.00021944554 0.034917057 0.026223635 -0.047128536
000280 65 82 a9 3b e8 bc 3f 3d 8d d9 50 3c b4 3c 16 3d
       0.005173015 0.046811014 0.012747181 0.036678985
000290 86 89 98 3c c8 e3 ba 3c 9b 7d f0 3c 85 1f dc 3c
       0.018620264 0.022813693 0.029356768 0.026870498
0002a0 6f 33 6f 3c 8a 74 86 3c e8 7d c4 3a ec 15 23 3b
       0.014599665 0.016412992 0.0014991136 0.0024884893
0002b0 3e a7 09 bd e9 bb 44 3d 87 1e 13 3d 22 d2 d7 bb
       -0.03360676 0.048030768 0.035917785 -0.006586329
0002c0 9b 0b 0a 3b 9b 87 a7 bb fd 83 bc 3c aa 16 2b bd
       0.0021064046 -0.005112601 0.023012156 -0.04176966
0002d0 65 3a 3d 3d ea 42 35 3d 1e 54 03 3d 75 fe 9a 3c
       0.046198267 0.044253267 0.032062642 0.018920163
0002e0 3e 73 0b 3d 83 80 2c 3d a4 53 04 3d d5 27 13 bd
       0.03404545 0.042114746 0.03230633 -0.03592666
0002f0 2c af 61 3c 23 fe 48 3d 25 07 1f 3d 85 87 0f bc
       0.013774674 0.04907049 0.038825173 -0.008760338
000300 a7 c3 92 bb c1 a4 6d bb b9 58 07 bd ab be 0c bd
       -0.00447889 -0.003626153 -0.033043597 -0.034361523
000310 0c 1b ff 3c b1 fe 5d 3c c3 7e 51 3b 72 e5 3a 3d
       0.031140827 0.013549493 0.0031966425 0.045628972
000320 90 b7 10 3d 2c 89 17 3d 86 89 0d bd 16 ed 8f 3c
       0.03533131 0.03699605 -0.03455498 0.017569106
000330 f5 22 1b bc d5 ad 2a 3d da e3 ea bc 2a 04 2b bd
       -0.009468784 0.041669685 -0.028673101 -0.041752018
000340 d1 6b ed bc 99 da 3e 3d cb f1 1a 3d 33 c6 02 3b
       -0.028982075 0.04659519 0.037828248 0.0019954562
000350 9e 5c 66 bc 67 0e 9b bc 89 f0 d2 3b b9 22 a5 3c
       -0.014060168 -0.018927766 0.0064373654 0.020158159
000360 38 c4 d0 bc d6 15 c1 3b dd 06 50 bd 7f d1 9f 3c
       -0.02548419 0.0058924956 -0.050787795 0.019509075
000370 78 3b 50 3d 49 be 3a 3b a8 1b 97 3c 6d 98 ef bc
       0.050837964 0.0028494766 0.018445805 -0.029247487
000380 fd 8a 10 3c dc 01 4f bd 8c f0 c5 bc dc 78 d4 3b
       0.0088222 -0.050538883 -0.024162553 0.006484134
000390 45 93 24 bd 47 be b3 bc 2f 16 aa bb b0 06 a3 3c
       -0.04017951 -0.021941317 -0.005190633 0.01990065
0003a0 4d ff 0e bd 93 a5 c2 bc cb 06 d9 3c ea c2 34 bd
       -0.034911443 -0.023760593 0.026492497 -0.044131197
0003b0 ee ca 2c ba 18 05 67 3c b7 ee 10 3d 79 7d 09 bd
       -0.0006591518 0.014100336 0.035383906 -0.033566926
0003c0 76 0d 36 bd 59 cf 34 3c ca b5 4c 3c 25 73 a2 3c
       -0.04444643 0.011035764 0.012494514 0.019830296
0003d0 27 74 fd 3c 05 99 3f bc 63 f1 fc 3c 1b 5d 8e 3c
       0.030939175 -0.011694198 0.03087682 0.01737838
0003e0 a4 aa 82 3b 1c a0 25 bd 63 ad 14 3d d6 d4 35 bd
       0.003987627 -0.040435895 0.036298167 -0.04439243
0003f0 53 98 3e 3d a0 d1 08 bd c4 48 af 3c 6d c6 c3 bc
       0.046531986 -0.03340304 0.021397002 -0.023898328

layers.0.query_encoder.bias f4 [32]
000000 a7 e7 37 bd a5 b0 14 3d 59 29 4f bd 70 4d 5c 3c
       -0.044898655 0.036301274 -0.05057654 0.013446197
000010 9e 8a 3a 3d 0b c7 bc 3c 65 4b 3a bd 09 2a 23 3d
       0.045542352 0.02304413 -0.045482058 0.03983501
000020 3f bc ac bc 1e e3 0e bd 90 15 88 bb 8f 1d 12 3d
       -0.021085856 -0.034884565 -0.004152961 0.03567272
000030 e6 a8 09 3d 1a 9f 96 3b b6 09 23 bd ad 2e 4f 3c
       0.03360834 0.004596603 -0.039804183 0.012645406
000040 88 2b 3b bd 7f 96 b9 3c 0e 9c 9a bc d1 6e b6 bc
       -0.04569581 0.02265477 -0.01887324 -0.022269638
000050 0e 48 dc bc fc 85 2c bc 5c 24 4e bd 77 8f 03 3c
       -0.026889827 -0.010529991 -0.050327644 0.00802981
000060 d1 7a 2c 3d 4e ca cc bc 9b 61 b8 3c 2a 2c a5 bc
       0.042109314 -0.02499881 0.02250748 -0.02016266
000070 0d 63 22 3d 4e 55 3f bd 2c 2a 08 3d ba f6 f0 3a
       0.039645243 -0.046712212 0.033243343 0.0018384077

layers.1.operator_encoder.weight f4 [32, 768]
000000 d4 6c ec bc 62 fe 92 bc 8b 4c 02 bd 55 ed 9e 3b
       -0.028860487 -0.017943565 -0.03181128 0.0048500695
000010 4a 3c e4 3c 99 6d f1 3b e2 3c ca 3c 85 8b 2e 3c
       0.02786078 0.0073678014 0.024687234 0.010653381
000020 bd 4b 12 bc da ae 03 bc b5 fc 58 bc 92 25 bb bb
       -0.00892919 -0.008037293 -0.013243844 -0.005711266
000030 f3 76 a1 3c ef 5b f2 bc e5 29 49 bc c2 7b 8a 3c
       0.01971004 -0.029584853 -0.012278055 0.016904715
000040 62 01 b3 3c b4 b4 be 3b bb 77 b4 3c d9 be c9 3c
       0.021851245 0.0058198813 0.022029748 0.024627136
000050 32 c4 eb b8 fa 7a 02 bd d9 2b e9 3b d5 f5 c5 3c
       -0.000112422174 -0.03185556 0.0071158228 0.024165073
000060 87 5d 5d 3a 6c 1c 54 3c 62 e3 62 3c c0 84 ac bc
       0.00084444176 0.012946229 0.013848158 -0.021059394
000070 7b 01 63 ba 3b ae d1 3c f6 48 b9 3c 96 bf 09 3d
       -0.00086595834 0.025595775 0.022617798 0.033629976
000080 c8 e4 21 bc da 2e e9 bc d3 97 e2 bb 1f 99 e2 3a
       -0.009881206 -0.028464723 -0.0069150715 0.0017288065
000090 d4 51 a3 3b 19 b9 9b 3b d3 fa 05 3d e3 92 11 bd
       0.00498412 0.00475229 0.032709908 -0.035540473
0000a0 8a 8c 6e bc 3d d8 0d bd 62 35 76 bc e5 67 54 3c
       -0.014559874 -0.03463005 -0.015027376 0.0129642235
0000b0 92 df c0 bb 34 7d ae bc c1 bf b5 bb 93 bc ab 3b
       -0.0058860267 -0.021299936 -0.0055465405 0.0052409857
0000c0 b6 37 95 3c 71 8c 9a 3c d7 dc ce bb f1 5f 43 bc
       0.018215042 0.018865796 -0.0063129473 -0.01192473
0000d0 6b 43 01 bd 58 ad 11 bd b6 c4 ec 3c b9 bb 26 3c
       -0.031558435 -0.035565704 0.028902393 0.0101765925
0000e0 9a d1 08 bd 54 b0 cf 3b 7d 2c 77 3c e8 cb 80 bc
       -0.033403017 0.0063381586 0.01508629 -0.01572223
0000f0 dd 39 cb 3c 05 8d 1c 3c 81 14 fa bc 5b 86 2c bb
       0.024807865 0.009555106 -0.030527355 -0.00263252
000100 9d f5 6b 3c a7 be 98 3c 6a 46 43 3c 57 3f e5 bc
       0.0144018205 0.018645598 0.0119186435 -0.027984304
000110 26 ad 10 3d e7 d3 13 3c 63 a3 5d bc 45 77 c0 bc
       0.035321377 0.009022689 -0.013527724 -0.023494372
000120 fa db 3c 3c 30 00 1f bc f8 7c ee bc b8 03 b4 3c
       0.011527056 -0.009704635 -0.029112324 0.02197443
000130 b1 3f 80 bc 5b 5c d3 bc a5 98 25 bc 2e 4c a0 ba
       -0.01565537 -0.025800874 -0.010107194 -0.0012229735
000140 f8 a4 3c 3b a1 08 cf 3c 5c 14 0b 3d db 2b 2c bb
       0.0028784852 0.02527267 0.033954963 -0.0026271257
000150 7c 9a d7 bc d0 6c 97 3b b2 00 e7 bc cc ca f6 bc
       -0.026318781 0.0046211258 -0.028198574 -0.030125998
000160 75 64 e3 bc da 0a 57 3b 8a 3d 89 3c 7a ee ab bb
       -0.027757863 0.0032812865 0.016752977 -0.0052469345
000170 d3 97 95 3b 68 ad 8d 3c 28 07 cc 3c 7d 7e ce 3c
       0.004565218 0.0172946 0.024905756 0.025206799
000180 36 b5 ec bc 2b c4 d1 3c 10 22 b1 3b f1 ed 98 3b
       -0.028895002 0.025606235 0.005405672 0.0046670367
000190 e1 5f 83 bb 0b 2f a4 3c 39 53 09 bd b2 36 d5 39
       -0.0040092324 0.020041963 -0.033526633 0.00040667277
0001a0 ce 27 d2 b5 ec d6 f6 3c 89 ed 9b bc 02 5f 12 3c
       -1.5657804e-06 0.03013178 -0.019034164 0.008933784
0001b0 ea 94 04 bd 79 cc 16 3c 70 ea 07 bd f5 75 96 3c
       -0.032368578 0.0092040235 -0.03318256 0.018366793
0001c0 80 30 01 bd 68 11 b8 3c 72 04 3c 3c 98 54 41 3c
       -0.031540394 0.022469237 0.011475669 0.011799954
0001d0 35 35 8e bc e2 ef 90 3b 81 a2 2d bc 48 f9 a6 3b
       -0.017359355 0.0044231275 -0.010597826 0.0050956346
0001e0 8a 71 17 3c 61 10 07 3d 92 cb e4 3c b3 ce fe bc
       0.009243378 0.032974605 0.027929101 -0.031104421
0001f0 9d b9 f4 3c 2c 8f 3b 3c fe 43 e6 3c 36 54 11 3d
       0.029873664 0.011447709 0.028108593 0.0354807
000200 90 2b 0a bd 2b a4 4b 3c c8 46 8f 3c c8 ed 51 3b
       -0.03373295 0.012429277 0.017489806 0.0032032598
000210 70 37 c3 b7 15 c4 7e 3b 70 ae 85 bb a3 2d fd 3c
       -2.3271627e-05 0.0038874198 -0.0040796325 0.03090555
000220 25 6b b3 bc b8 2f f8 bc 6e c6 bf 3c cc 31 01 3d
       -0.021901676 -0.030296192 0.023410048 0.03154163
000230 12 a6 bd 3c 26 4c a6 3b b5 5e cd 3c d6 ec c4 3c
       0.023150478 0.0050749956 0.025069574 0.024038713
000240 bb 1b 49 3c 7c d2 39 bb 60 53 b6 3b 36 92 e2 bc
       0.012274678 -0.0028354218 0.0055641383 -0.02765761
000250 75 d6 a3 bc b9 09 0a 3d f1 bc 4e 3c 7b c6 49 3c
       -0.019999722 0.03370068 0.012618289 0.012315388
000260 81 fd 0c bd 58 d8 cb bb 02 f1 04 3d f8 07 a9 3c
       -0.034421448 -0.0062208585 0.032456405 0.020633683
000270 76 b0 0c bc dd e9 d5 bc a2 77 df 3c 9f 64 19 3c
       -0.008586993 -0.026112491 0.027278725 0.009362369
000280 e0 07 24 3c 66 1b 06 3d 10 39 45 bc ed de f6 3c
       0.010011643 0.032740973 -0.012037531 0.030135596
000290 76 9e 2c bc b9 e2 0c 3d 5b d1 0d bc 28 aa d9 3c
       -0.010535827 0.034395907 -0.008655871 0.026570395
0002a0 ef 41 6f 39 76 a7 59 bc eb 60 b9 3c 68 88 08 bd
       0.00022817378 -0.013284555 0.022629222 -0.033333212
0002b0 f4 ca 0c bd 75 d4 be bb 8e 63 08 bd b5 96 19 3a
       -0.03437324 -0.0058236667 -0.033298068 0.0005858944
0002c0 3a 24 02 bd a9 03 e1 bc 3f 8f 24 bc ec 63 9b 3c
       -0.03177283 -0.027467566 -0.010043918 0.018968545
0002d0 c5 27 f8 bc 67 1c 52 bc cb 6c 5f bb a3 3c 7a 3c
       -0.030292401 -0.012824154 -0.0034091945 0.015273246
0002e0 72 85 36 3c 72 65 29 3c 2b bb 00 bd f1 a6 f9 39
       0.011140214 0.010339128 -0.031428497 0.00047617362
0002f0 64 9a 11 bd b4 7a a0 3c 24 ff d1 bc 28 f0 0a bd
       -0.03554763 0.01958976 -0.025634356 -0.033920437
000300 92 a1 01 3c 6d 49 dd bb 11 21 b7 3c 48 14 35 3c
       0.0079120565 -0.006753138 0.022354634 0.011052199
000310 ae 53 cd 3c 84 70 b5 3c 40 98 da bc 63 b5 00 bd
       0.025064316 0.022148378 -0.026683927 -0.031422984
000320 3e 07 06 bc 49 d4 1a bc 16 2b 8f bc 83 a1 78 3c
       -0.008180438 -0.009450027 -0.0174766 0.015175226
000330 de 2c 61 3c 46 a0 9f 3b b3 24 18 bc 26 b4 0c bd
       0.013743607 0.004871401 -0.0092860935 -0.03435149
000340 91 c6 85 bc 48 cd ee bc 59 c1 ca bc 27 d1 3b bb
       -0.016330035 -0.02915062 -0.024750398 -0.00286586
000350 ca 8f a9 3c ee cf 91 bb 78 2d 0a bd fd fd 12 3d
       0.020698447 -0.004449836 -0.03373477 0.035886753
000360 f2 66 45 bc 91 a6 e6 3c 13 66 41 bc b4 c1 4b 3c
       -0.01204847 0.028155597 -0.011804122 0.012436319
000370 38 7c 93 bb e8 b1 00 bd 4f 45 ee 3b 1e 76 c1 3b
       -0.004500892 -0.031419665 0.007271446 0.0059039732
000380 5e 27 7b 3c e7 a3 8b bc 0e 36 65 bc 80 2b 31 3c
       0.01532921 -0.017045928 -0.013989938 0.010813594
000390 c4 a3 0b 3d 63 89 db bc d8 9a f7 3c 0b 57 04 bd
       0.034091726 -0.02679891 0.030225202 -0.032309573
0003a0 02 90 92 3c 10 a9 09 3d 59 08 f4 bc 67 b3 40 3a
       0.017890934 0.033608496 -0.029789137 0.0007350952
0003b0 a0 5d 6a bc 64 d1 a6 bc 1e 00 bd bb 72 cf 94 3c
       -0.0143045485 -0.020363517 -0.0057678362 0.018165324
0003c0 6f 5a c7 3c 2b ef e7 3b 6a 1a fe 3c 01 9c 0f bb
       0.024335114 0.0070780716 0.031018455 -0.0021913054
0003d0 fc 8e f0 3c a4 5a 2f 3c 03 cc bb 3c a0 7f 86 bc
       0.029365055 0.010702763 0.022924429 -0.016418278
0003e0 a2 23 e4 bb a5 75 0d bc 4a 92 0d 3d 49 fc e4 3c
       -0.0069622556 -0.008634006 0.03456334 0.02795233
0003f0 a7 60 ca 3c 3d 24 b1 3c d4 27 0d 3c 44 5d 1f 3c
       0.02470429 0.021623725 0.008615453 0.009726826

layers.1.operator_encoder.bias f4 [32]
000000 3f 34 78 3c 3c a8 71 bc c4 a4 35 bc 59 d5 0f bd
       0.015149175 -0.014749583 -0.0110866465 -0.035115574
000010 c6 b9 d8 3c 11 8f a4 bc d4 e3 40 3c de 2e 8f 3c
       0.026455771 -0.02008775 0.011773068 0.017478403
000020 b3 8c d1 3c 1d 07 d3 bc 8d ab d2 bb d0 a6 de 3c
       0.025579786 -0.025760228 -0.006429142 0.027179152
000030 c1 7b 68 bc 40 df 2d 3b 3f 8f 59 3b 54 ef be 3c
       -0.0141896615 0.0026530772 0.0033196954 0.02330748
000040 cb b0 d3 3c e2 75 00 bd 7a 3e 12 bd c4 53 03 3d
       0.025841137 -0.03136242 -0.035704114 0.032062307
000050 fc f3 7b bb cf ed 0f 3c 4e 10 44 bb f0 2b d1 bc
       -0.0038444987 0.008784725 -0.0029916945 -0.025533646
000060 4f b0 04 3d 6d 20 f8 3c d8 9b f8 bb 32 74 9f 3c
       0.032394703 0.0302889 -0.0075869374 0.019464586
000070 e5 4e 2a bb 81 53 50 bb 28 6d 7e bc 73 2c f3 bc
       -0.0025986966 -0.0031788053 -0.015528955 -0.029684281

layers.1.query_encoder.weight f4 [32, 384]
000000 e6 b3 91 bc d9 d8 3a bd 75 ab cb bc f4 2f e0 bc
       -0.017785978 -0.04561696 -0.02486203 -0.027366616
000010 b5 c1 70 bc a9 8f a6 bc 25 78 39 3d 46 a0 20 bd
       -0.014694621 -0.020332174 0.045280594 -0.03921535
000020 b6 aa 14 bd 35 8f 5f bc e3 da 96 3c 0d 3f 9f 3c
       -0.036295615 -0.013644983 0.01841492 0.019439245
000030 e0 92 bd bb 88 c6 81 3c 60 07 12 3d d6 26 ad bc
       -0.005785331 0.015841737 0.035651565 -0.021136682
000040 3a 6b 41 3d f5 c8 47 3d 5a 3f 6f 3c 5a 55 3c bd
       0.0472214 0.048775632 0.0146025065 -0.045979835
000050 2a 6e a8 3b fa 9c 02 bd e2 6c 86 39 83 fb e2 3b
       0.0051400857 -0.031887986 0.00025639596 0.006926955
000060 96 df 17 3d a4 30 dc bc 19 ff 00 bd 49 86 bc bc
       0.037078463 -0.026878662 -0.03149328 -0.02301325
000070 d5 fe 4c bd 9e 43 2d 3d 44 9c 0f bc 34 97 1c 3c
       -0.050047714 0.042300813 -0.008765284 0.009557534
000080 9b 14 c3 ba 23 79 ad 3c 7e 30 29 3c 5b 5e 04 3d
       -0.001488346 0.021175927 0.010326503 0.032316547
000090 f3 04 ee 3b d9 d9 c1 3a 1b 51 f5 3c ed 48 03 bd
       0.0072637736 0.0014789655 0.0299459 -0.03205197
0000a0 ef 8c 00 bd 39 a7 02 bc b7 93 49 bd e8 c9 f6 bc
       -0.031384405 -0.007974439 -0.049213137 -0.030125573
0000b0 ed fa c2 3c ce d9 e3 bc 60 56 d0 3a d1 a6 aa 3c
       0.023801291 -0.027813818 0.0015894882 0.020831497
0000c0 af ad e0 3c 28 60 49 bd 2a 79 f9 3c 9b b1 1e bb
       0.027426569 -0.049163967 0.030453283 -0.0024214748
0000d0 5e e6 38 3d f7 ee d6 3c fc cd 00 3c 9b 86 e5 3c
       0.04514157 0.026236994 0.0078616105 0.028018286
0000e0 97 8b cf 3c 2c ef 3d bd ea d5 e2 3c 74 b5 37 bd
       0.025335116 -0.04637067 0.027689893 -0.04485078
0000f0 78 a5 bf 3c aa bf 15 bc 07 3f 99 b9 bf 7a 21 3d
       0.023394331 -0.009139935 -0.00029229393 0.0394237
000100 a3 ba bf bc 30 72 94 bc 64 53 bd bc 86 1e 8b 3c
       -0.023404425 -0.018120855 -0.023111053 0.016982328
000110 94 20 42 bc a9 71 16 3c c1 d1 f9 bc 10 f0 44 bd
       -0.011848588 0.009182372 -0.030495526 -0.048080504
000120 aa 9c dc ba 24 15 02 3d 57 8d 45 3d 29 e9 24 3d
       -0.0016831357 0.031758443 0.048230495 0.04026142
000130 9e 98 ee bc 88 8f 2d bd a5 b9 29 3d 29 97 7d 3c
       -0.029125508 -0.04237321 0.04143681 0.015477934
000140 a5 be 4b 3d b9 51 38 3d 59 b7 b9 3c 34 16 00 3d
       0.04974236 0.04499981 0.022670435 0.031271175
000150 72 ac 19 bd f8 da 06 3d b1 40 35 3d a0 e3 2f 3d
       -0.037517972 0.03292367 0.044251148 0.04294169
000160 65 f8 09 3d 10 6e 28 bc d1 d7 1d 3d a4 1f 08 bc
       0.033684153 -0.010280147 0.038535897 -0.008308325
000170 59 9f 28 bd ba 60 1c bc ca 6e 3f bc da e4 36 3d
       -0.04116759 -0.009544546 -0.011684129 0.044651844
000180 85 65 14 3d b1 15 08 bd 4a 3c 0c 3d 5b 55 0e 3d
       0.03622963 -0.03322381 0.034237184 0.03474937
000190 50 ca 9f bc 6e 35 e4 bc c3 06 e4 3c cb a4 71 bc
       -0.01950565 -0.027857509 0.027835255 -0.014748762
0001a0 e5 65 0e 3c a7 21 00 3c 8c c5 87 3b ba 9b 1e bd
       0.008691286 0.007820523 0.0041434225 -0.03872273
0001b0 81 04 8d bc 33 01 36 bd 13 1b b5 bb b0 00 b2 bc
       -0.017214062 -0.044434737 -0.005526909 -0.021728843
0001c0 7d f6 18 bd 09 e0 18 bd d9 f6 9c bc a9 ba 02 3d
       -0.037344445 -0.03732303 -0.019160675 0.031916294
0001d0 84 d1 af 3c 60 39 bf bc d2 aa 4f bd c9 b0 b6 3c
       0.02146221 -0.023342788 -0.050700016 0.022301095
0001e0 31 2a f6 bc 71 26 68 3c ec 44 e3 3c cc 83 7c 3c
       -0.030049415 0.014169321 0.027742825 0.015412282
0001f0 24 96 ea 39 79 84 14 3b b4 3f d0 3c f7 c1 35 3d
       0.00044743821 0.0022661968 0.025421001 0.044374432
000200 d3 84 c3 3b 9a 0e 3d 3c 93 79 66 3c 9e f4 fb 3c
       0.0059667616 0.011539126 0.0140670715 0.030756291
000210 1a 96 40 3d 77 c5 ff 3c 4e 96 a7 bc 02 78 9d 3c
       0.047018148 0.031222088 -0.020457413 0.019222263
000220 b0 63 d2 bb 65 2a 48 3d 8b 3d 3b bd cb 17 ce 3c
       -0.006420575 0.048868556 -0.04571299 0.02515783
000230 bd 94 3c 3c fc 9d 07 bd 3e bd 26 bd 0c 60 22 bd
       0.011510071 -0.03310965 -0.04070782 -0.03964238
000240 34 a2 f2 3c 26 bd e4 bc 5d ac 4f bc e1 1f a1 3b
       0.02961836 -0.027922224 -0.012675372 0.0049171303
000250 db 12 09 bc af e8 fd bb cf ba 05 3c 85 92 46 bc
       -0.008366312 -0.0077486853 0.008162214 -0.012119894
000260 5e e3 8a 3b 3e 76 ec ba 44 b2 0d 3c 89 13 0c 3c
       0.00423853 -0.001804061 0.008648459 0.008549579
000270 ad d4 19 bc 45 d8 3d 3d 3a 3d 1f bd 55 c7 d9 bc
       -0.009389085 0.04634883 -0.03887675 -0.026584307
000280 e2 f8 19 bd bd 7a 04 bd 9e be 1c bd b9 c5 ec 3c
       -0.03759087 -0.032343615 -0.038267724 0.028902875
000290 e4 17 ca 3c 12 ee 69 bc 95 19 68 bc c5 71 5c bc
       0.024669595 -0.014277952 -0.0141662555 -0.013454859
0002a0 a9 ca 91 3c 12 32 a6 bc 5b 0b 48 bc 08 63 6b bc
       0.017796831 -0.020287547 -0.012209739 -0.014366873
0002b0 41 a4 f7 bc e1 07 9d bc dc 43 f1 bc 54 51 17 3d
       -0.03022969 -0.019168796 -0.029451303 0.036942795
0002c0 7e 96 44 bd 18 f9 44 bc 1d 01 fa bc df fb 29 bd
       -0.047995083 -0.012022279 -0.030518109 -0.04149997
0002d0 e5 60 50 bd fb ea 98 bc bd ba b1 bc ed 28 1b ba
       -0.050873656 -0.018666735 -0.021695489 -0.0005918879
0002e0 d4 f8 88 bc ef 5e 5f ba 3e 37 12 3c 10 f9 b5 3b
       -0.016720213 -0.0008520921 0.008924304 0.005553372
0002f0 7b a1 3e bd 85 c6 e1 3c 3c cd 32 bd f4 90 76 3c
       -0.04654072 0.027560482 -0.043652758 0.015049208
000300 23 67 36 3b 59 09 fc 3b 70 f2 91 bc 4a c2 9b bc
       0.002783247 0.007691544 -0.017815799 -0.019013543
000310 61 0f bd bc 38 43 29 3c 6c 8f fb bc 7f 12 13 bb
       -0.023078622 0.010330968 -0.030708037 -0.0022441444
000320 4f 99 b3 3c 52 1c 0c 3d 1c 3d ff 3c 75 af ed bc
       0.02192369 0.034206696 0.031157069 -0.029014328
000330 69 6b 68 3c 79 47 90 3c d7 a1 11 bd a5 c3 37 3d
       0.014185765 0.017612206 -0.035554733 0.044864316
000340 28 8b 8f 3c ab 93 2f 3d 67 0a 3a 3d fa f7 83 3c
       0.01752241 0.042865437 0.045420077 0.016109455
000350 d7 fb da bb ea a1 45 3d df aa 36 bd ee bf 0b bd
       -0.0066828537 0.048250116 -0.04459655 -0.034118585
000360 e5 19 38 bd c8 78 de bc 43 a2 d4 3c 82 6e 16 3d
       -0.04494657 -0.027157202 0.025956279 0.036726482
000370 a9 93 3a 3d 25 b9 19 3d f4 22 dc bb 05 53 ab bc
       0.045550976 0.037530083 -0.006718034 -0.02091361
000380 c6 f8 33 3d e2 3e 84 bc 1c aa 5c 3c d9 53 d9 bc
       0.04393842 -0.016143266 0.013468292 -0.02652924
000390 d9 c4 b4 bc 10 ae 98 3c 1e 26 1a bd f5 d5 e5 3c
       -0.02206652 0.018637687 -0.037634008 0.028056124
0003a0 65 e8 c9 3c 62 4a 39 3d 11 16 4a bc 8e 02 2c bc
       0.024646947 0.045236953 -0.012334363 -0.010498656
0003b0 41 c1 f7 3a 61 cb 6f bb 02 1e 8d bc 2f 36 48 bd
       0.0018902199 -0.003658973 -0.017226223 -0.0488798
0003c0 6f d8 f7 3c 1c 15 26 bd e1 38 1e bd b7 f8 15 bc
       0.03025457 -0.040547475 -0.038628463 -0.0091535365
0003d0 e7 1c 2b 3d 39 3b b6 bc b5 a0 27 bd f7 90 40 bd
       0.04177561 -0.022245036 -0.040924747 -0.04701325
0003e0 43 ab 5b bc 10 c8 02 3d c7 ab 4f bd 51 34 97 3c
       -0.013407531 0.031929076 -0.05070093 0.018457564
0003f0 41 3b 19 3c ae 34 9e 3b 89 b6 27 3d 6e 65 07 3d
       0.009352506 0.0048280573 0.040945563 0.033055715

layers.1.query_encoder.bias f4 [32]
000000 17 c2 d4 bc e4 58 10 bd a4 2a b5 3a c3 e9 06 bd
       -0.025971455 -0.035241023 0.0013821912 -0.032937776
000010 a5 17 13 3d 03 f9 cb bc 3f 3b 05 3d 5c e0 33 3d
       0.03591122 -0.024899011 0.032527205 0.043915138
000020 2d 2f e5 3c 05 0a c2 39 b0 f5 ae bc 72 38 1b bd
       0.027976597 0.0003701003 -0.021357387 -0.037895627
000030 e1 4d 50 bc 7c d7 36 bd 40 e8 09 3d 22 37 cf 3c
       -0.01271388 -0.044639096 0.033668756 0.025294844
000040 da fb 96 bc ae 95 95 bc 43 eb 2a bd 61 39 66 bb
       -0.018430639 -0.01825985 -0.04172827 -0.0035129415
000050 ad 9c a5 bc 6d 08 14 bd 95 9f 61 3b ff 57 e6 ba
       -0.02021631 -0.036140848 0.0034427394 -0.0017573832
000060 94 e8 6b 3c 11 3a 15 bc 1b 54 32 3d 1d 8c 21 3d
       0.014398713 -0.009108082 0.04353724 0.039440263
000070 d8 14 18 bd 68 2d 4a 3d 58 ad f9 bc bd df b9 bb
       -0.037129253 0.04935971 -0.030478165 -0.0056724236

layers.2.operator_encoder.weight f4 [32, 768]
000000 72 3d c2 3a 19 7c e7 3a 1f 82 d7 3c 13 e1 03 bd
       0.0014819338 0.0017660885 0.026307164 -0.03219707
000010 9b 08 8c 3c f9 40 81 bc 18 b6 08 3d d4 15 ac bc
       0.017093947 -0.015778052 0.033376783 -0.021006502
000020 48 c5 04 3d 0a e7 d5 3c 73 e7 db bc 17 e9 69 3c
       0.032414705 0.026111145 -0.026843762 0.014276764
000030 f5 c9 29 3b 4b 59 fe 3c 5f 49 e7 3c 9b 1c 95 bc
       0.002590773 0.031048438 0.028233228 -0.018202117
000040 e6 39 67 3c 9e 62 f9 3c 6c 50 97 bc e8 22 11 bd
       0.014112925 0.030442532 -0.018470965 -0.03543368
000050 05 e1 8a bc 3e 05 23 bc 24 3b b1 3c 62 29 b8 3c
       -0.016953 -0.00994998 0.021634646 0.02248067
000060 18 60 e7 bc 5a 22 e3 3b 8b 4e f7 bc d2 12 da bc
       -0.028244063 0.0069315853 -0.03018882 -0.026620302
000070 54 9e ba bb 12 20 25 bb bd bc 47 3c c6 ca 5e bb
       -0.0056951437 -0.0025196117 0.012190995 -0.0033995374
000080 33 6a cf bc 5e cd 00 3d 66 9c 8b bb 17 85 fe bc
       -0.025319194 0.031445853 -0.0042605875 -0.031069322
000090 69 8f 0b bc e4 5e 6b 3c c4 f0 a6 3b 11 82 11 3d
       -0.008518078 0.014365885 0.0050946195 0.03552443
0000a0 9a 49 88 3c 9b e0 c9 bc dd a9 92 3c 22 f6 09 bd
       0.016636658 -0.024643233 0.017903263 -0.033681996
0000b0 f7 1b e2 3c d9 85 da 3b 34 20 c9 bc 1d bc 87 3c
       0.027601225 0.006668788 -0.024551488 0.016569192
0000c0 e7 78 19 bb 33 88 7a 3c 05 15 be bc d8 ab cb bc
       -0.002341801 0.0152912615 -0.023203382 -0.024862215
0000d0 c9 4b e0 bc ba f8 60 3c 6c 56 04 bd 31 ef 6d 3c
       -0.027379887 0.013731176 -0.03230898 0.01452236
0000e0 81 7e 57 3c 1e 0d 1b 3c 29 89 90 bc c0 e1 bb bb
       0.0131527195 0.009463577 -0.017643528 -0.0057336986
0000f0 a9 a6 f8 3c 09 15 61 3c fa a0 dc 3c fe 57 fc 3c
       0.030352907 0.013737925 0.026932228 0.030803677
000100 91 9b e3 bc 23 83 ad 3c 97 c5 f4 bb c0 39 7a 3c
       -0.02778414 0.021180695 -0.0074698436 0.015272558
000110 a6 3b ef bc 41 35 72 3c 89 1f 0f 3d 16 ac 96 3c
       -0.029203247 0.0147832045 0.034942184 0.018392604
000120 7e 82 f3 3c 53 2d 84 3c 53 44 c6 bc 5b e3 6a bc
       0.02972531 0.016134894 -0.024202501 -0.014336432
000130 a7 55 d3 bc 1d 09 68 bc ea b4 6b 3c 81 1d 03 bc
       -0.025797678 -0.014162329 0.014386395 -0.00800264
000140 6d 60 0a bc 0e 9d 45 3c eb 92 e2 38 cd ff 01 3d
       -0.008445841 0.012061371 0.000108038854 0.03173809
000150 0e 8d 49 bc bc 2d 61 bc cc ea 9d 3c 60 6f b2 3b
       -0.012301696 -0.013743814 0.019276999 0.005445406
000160 36 0f a7 3c 88 c1 a4 bc 66 f1 e7 bc 02 b1 eb bc
       0.020392995 -0.020111814 -0.02831335 -0.028770927
000170 a3 e7 41 bc 1d 0d 95 bc 23 bd 64 bc a0 2b bd bc
       -0.011835012 -0.01819473 -0.013961109 -0.023092091
000180 ca e7 30 3c 47 d2 a9 bc ef 62 0e bd 20 28 04 3d
       0.01079745 -0.02073015 -0.03476232 0.03226483
000190 f0 73 b1 3c 73 98 b3 bc 64 e3 a0 3c 20 5b 72 bc
       0.021661729 -0.02192328 0.019639678 -0.014792234
0001a0 24 40 8c 3c 96 6f 42 bc 4f a5 52 bc b6 1e 81 bc
       0.017120428 -0.0118674245 -0.012856795 -0.015761714
0001b0 87 95 90 bb 28 51 cc 3c 50 b0 84 bc 41 97 f9 3c
       -0.0044123563 0.024941042 -0.016197354 0.030467631
0001c0 00 84 05 bd 9c 95 9c 3c 29 f5 1a 3a 7a 35 fe ba
       -0.032596588 0.019114308 0.00059111655 -0.0019394599
0001d0 ba 4f a1 3c 77 59 dc 3c 61 fe 1c 3c ad 9f 35 3b
       0.019691337 0.026898129 0.009582133 0.0027713582
0001e0 2c a6 05 3c 78 57 ff 3c 82 13 10 bd e8 13 ec bb
       0.008157294 0.031169638 -0.035174854 -0.0072045214
0001f0 34 33 7c bb c8 d3 8d bc e2 78 f2 bc 2e 3f c2 ba
       -0.0038482668 -0.0173129 -0.029598657 -0.0014819854
000200 b5 65 85 bc c4 3b cb bc b4 fd 9d 3c c3 0f 42 bc
       -0.01628385 -0.024808772 0.019286014 -0.011844578
000210 53 58 09 bc ac 12 ec bc 9c 25 25 3c c0 08 a5 3c
       -0.008382875 -0.028817497 0.010079768 0.020145774
000220 f0 56 9a bc ef 31 12 3d 81 58 3a bc 00 25 c4 3c
       -0.018840283 0.03569215 -0.01137364 0.023943424
000230 c8 f5 e3 3c cd 9b de bc 9b 42 e6 bc e4 20 61 bc
       0.027827159 -0.027173901 -0.028107932 -0.013740752
000240 25 d2 87 3c f2 e5 0c bd e0 99 8d bb da 82 e6 bc
       0.016579697 -0.03439898 -0.004321322 -0.028138567
000250 7d eb cb 3c 41 8f a4 3c 1c e0 70 3c 05 11 d1 3c
       0.024892563 0.02008784 0.014701869 0.02552081
000260 da c6 88 bb 3e 0d 96 3b e6 18 da bc ef 4f f8 3c
       -0.0041740956 0.0045792153 -0.0266232 0.030311553
000270 cb 2a 87 3c 6d 9d b1 bc 78 ba 02 3c 74 6e 63 3c
       0.016499897 -0.021681512 0.007979028 0.013881315
000280 01 d3 9a bc 5b fe fa 3b bc 10 fc 3c 4f 40 08 bd
       -0.018899443 0.007659716 0.030769698 -0.033264454
000290 50 88 b8 3b 56 c2 c1 3c 33 c3 bd 3c 30 90 76 3c
       0.005631484 0.023652237 0.023164367 0.015049025
0002a0 58 24 3a 3c af 4c 52 bb 54 59 fd bc 5d 20 78 3a
       0.011361204 -0.0032089164 -0.030926384 0.0009465272
0002b0 ed a5 a7 3c 67 d9 f7 3c bb 85 64 bc 74 96 d5 3c
       0.020464862 0.030255033 -0.013947899 0.026072718
0002c0 23 f7 29 bc bc 5a b4 bc 70 04 09 bd e1 c9 87 3c
       -0.010373863 -0.022015922 -0.033451498 0.016575756
0002d0 b8 58 ec 3c 0d 93 c7 bc a5 32 e2 3c 01 52 1b 3c
       0.028850898 -0.024362111 0.02761204 0.0094800005
0002e0 43 d3 a2 3c c4 ef cc bc 05 b6 a5 3c 36 93 c6 bc
       0.019876128 -0.025016673 0.020228395 -0.024240118
0002f0 a1 35 0f 3d 95 a3 5a bc 38 5f 0b 3d 34 2e b8 3c
       0.034963254 -0.013344665 0.034026355 0.022482969
000300 ee 7b 95 bc 75 c5 50 3c 87 3c 03 bd 90 0e 80 bc
       -0.01824757 0.01274239 -0.032040145 -0.015631944
000310 62 bb 78 ba 05 bf 08 bd eb f6 f0 3b a9 2a 0e 3d
       -0.00094883714 -0.033385295 0.0073536537 0.034708653
000320 51 18 d0 3c 82 42 1d 3c 5a d6 be bc 65 1f 9c 3b
       0.02540222 0.009598376 -0.02329557 0.0047644847
000330 43 3d 25 3c 5b e1 02 3d 3b 9f 08 bd a4 9d 11 3d
       0.010085407 0.031953197 -0.03335498 0.03555073
000340 7e 41 94 bb 3a f6 0e 3d b5 a2 36 3c 3e 09 d2 3c
       -0.004524409 0.03490279 0.011147191 0.025639173
000350 44 47 19 bc bf 08 aa 3c 63 4b ab bc 0d c8 48 bb
       -0.00935537 0.020756124 -0.02090997 -0.0030636818
000360 d1 36 4e bb d5 61 ed bc 23 ba f4 3c e0 e2 f7 3c
       -0.0031465779 -0.028977314 0.029873913 0.03025955
000370 fd bd 1f 3c 5e 7c 03 bd b4 e8 f4 3b 15 c7 4e 3b
       0.009749887 -0.032101028 0.0074740294 0.0031551768
000380 5d 9d 96 3c c6 69 cb bc e7 a8 05 3d 54 84 56 bb
       0.018385584 -0.02483071 0.03263178 -0.0032732682
000390 4b 2e 86 3c 81 dd fc bc 13 de f5 bc 87 58 c3 3c
       0.016379496 -0.03086734 -0.03001312 0.023845924
0003a0 04 1a a2 3c b8 28 ed bc bb cf 0d 3c cd 48 34 3c
       0.019787796 -0.02895008 0.008655484 0.011003685
0003b0 4e 94 94 bb 0e e2 83 bc d7 77 b7 3c da af f5 bc
       -0.004534281 -0.016099002 0.022396011 -0.02999108
0003c0 8f fc aa bc 6b ba 03 3d ad 17 50 3b d4 3f 74 3c
       -0.020872382 0.032160204 0.0031752393 0.014907796
0003d0 f8 31 23 3c 4d bd 32 3c f1 b7 67 3c b9 bf d4 3c
       0.009960644 0.010909391 0.014142976 0.025970327
0003e0 51 74 95 3b f6 16 0c 3c 1f 09 73 3c 54 c5 12 bd
       0.004560985 0.008550396 0.014833718 -0.035832718
0003f0 43 fa fa 3c bd c4 3b ba 0d 21 fa 3c 0c 69 e1 3c
       0.030636912 -0.00071628 0.030533338 0.02751591

layers.2.operator_encoder.bias f4 [32]
000000 db 7e 9b bc 23 f2 11 3d e7 bc 66 bc a3 d2 0d 3c
       -0.018981388 0.03563131 -0.014083124 0.008656177
000010 10 f9 3a 3c 93 b0 f4 3c d6 bb f9 bc 39 bb 7d 3b
       0.01141192 0.029869353 -0.030485075 0.003871633
000020 0d 3a d9 3b f7 fa ca ba 02 d8 af 3c 3a de cb 3c
       0.0066292346 -0.001548617 0.021465305 0.02488624
000030 c5 d7 11 bd a8 8c 31 bc 08 13 76 bc 9f da 04 3d
       -0.035606164 -0.010836758 -0.015019186 0.032435056
000040 4c 70 1d bc 19 47 2a bc 12 42 bb 3c c3 4c 26 3c
       -0.009609293 -0.010392928 0.022858653 0.010150137
000050 da 69 c8 3c 65 48 09 3b c8 27 97 bc 5d 2a ca bc
       0.024464536 0.0020947692 -0.018451586 -0.024678404
000060 8c 5a 73 bb 38 17 d4 bc 3c 4c 07 3d a9 9c e6 ba
       -0.0037132828 -0.025889978 0.033031687 -0.0017594296
000070 8d 7b 88 3c b6 f7 e6 3c 5a c1 5c 3b 9c e0 ff 3b
       0.016660476 0.02819429 0.0033684582 0.007808758

layers.2.query_encoder.weight f4 [32, 384]
000000 43 b3 33 bd b5 52 e0 3b 8f 0d 1f bd 44 23 b6 bb
       -0.04387213 0.006845797 -0.03883129 -0.005558403
000010 24 37 b2 bc eb 4b 3c bb e7 ad 09 3d e6 df 1b bd
       -0.021754809 -0.0028731774 0.03361311 -0.038055323
000020 47 9f ce bc a8 18 2d 3d 79 ac 36 bd 20 d6 5c bc
       -0.025222434 0.042259842 -0.044598076 -0.013478786
000030 98 92 08 3d 27 5e c8 3a 5f 27 c9 bc 30 f4 51 bc
       0.033342928 0.0015286849 -0.024554906 -0.0128145665
000040 b2 7f 71 bb c8 2c a4 bc 30 d7 83 bc 30 34 7d bc
       -0.0036849794 -0.020040885 -0.01609382 -0.015454337
000050 db 7d 39 3d f4 7b 29 bd bc 18 d7 3a 62 e8 04 3c
       0.04528604 -0.041377977 0.001641057 0.008112045
000060 7c 45 59 bb dd 99 2a 3d 0a 28 3e 3c 50 95 fd bc
       -0.0033152988 0.04165064 0.011606226 -0.030954987
000070 6b fd 8a bc 20 79 35 bd da d7 3e bd 8b ae 70 bc
       -0.016966542 -0.044304967 -0.04659257 -0.014690052
000080 79 de 0d 3d 77 e5 b9 bc 84 ac 10 3d ec 77 30 3d
       0.034635995 -0.022692425 0.035320774 0.043083116
000090 cc d4 bc bc f6 33 2b bd 16 5b d3 3c b7 e4 86 bc
       -0.023050688 -0.0417976 0.02580027 -0.016466482
0000a0 15 eb a1 ba fa ed 25 bd b5 4f 9d bb d9 de 9d bb
       -0.0012353385 -0.040510155 -0.0048007616 -0.0048178253
0000b0 1b 22 1a bd 20 be aa 3c f9 0f 2b 3d 14 2c 72 bc
       -0.03763018 0.020842612 0.04176328 -0.014781017
0000c0 52 8c c1 3c 3e 77 08 3d 17 0a 0c bd 27 f6 8c 3c
       0.02362648 0.033316843 -0.03418931 0.017207218
0000d0 9e b0 37 bc 18 6b 12 3d 25 b8 4c 3d a9 6d 3b bd
       -0.011211542 0.035746664 0.0499803 -0.045758877
0000e0 c8 d7 18 3d fa 80 16 bd 21 fa f2 bc 25 9f e2 3b
       0.03731516 -0.036744095 -0.029660286 0.006915944
0000f0 ee 8a 23 bd f5 c0 1c bd 09 0a b8 3c 1a 8f 6a 3c
       -0.039927416 -0.038269956 0.022465723 0.014316345
000100 20 49 dc 3b c1 22 14 3d 65 10 cd 3b 97 a5 f9 bc
       0.0067225844 0.036165956 0.006258058 -0.030474467
000110 49 aa c6 bc 96 b2 ac bb 92 28 bb bc a3 22 44 bd
       -0.02425112 -0.0052703125 -0.022846494 -0.047884595
000120 50 d4 77 3c 29 30 96 bc c8 fc 52 bc 00 06 83 bc
       0.015126303 -0.018333511 -0.012877651 -0.015994072
000130 cf 20 d3 ba bb 94 e0 3c d7 ad 3c 3d e7 1f 61 3c
       -0.00161078 0.02741467 0.046064224 0.013740516
000140 2d aa 60 bc ec 22 17 3d 0a 8c b8 bc 48 77 f8 3c
       -0.013712448 0.03689854 -0.022527713 0.030330315
000150 1e 4e a8 ba ae 1e e0 bc a3 b1 f7 bb 93 8c 86 3c
       -0.0012840664 -0.02735838 -0.0075590177 0.016424453
000160 a0 9c 4c bd d4 06 96 bb 3c 77 c0 3c c3 02 46 bb
       -0.049954057 -0.0045784507 0.023494355 -0.0030214048
000170 86 52 00 bd d3 2e 91 bb 9b d0 5e 3c 67 2c b9 bc
       -0.0313287 -0.0044306307 0.01359954 -0.02260418
000180 f1 91 35 bd dc 77 f2 3c 22 83 33 3d 69 b6 24 3c
       -0.044328634 0.029598169 0.04382623 0.010053256
000190 ea db 78 3c b2 0a 05 bd c4 96 d8 3c 06 de b2 bc
       0.01518915 -0.032480903 0.026439078 -0.021834385
0001a0 88 de 45 bb 6d 5f c1 bb f5 a4 40 3d 43 2b 56 bc
       -0.0030192453 -0.005901268 0.047032315 -0.013071838
0001b0 35 22 c8 bc 36 2d 6e bc c8 40 d7 bc fc d3 bf 3c
       -0.024430374 -0.014537146 -0.026276007 0.023416512
0001c0 6c 59 16 3d 44 da f4 3c c7 b0 34 3c 27 93 1a 3d
       0.036706373 0.029889233 0.011028475 0.03773799
0001d0 ea 45 a8 3c 34 37 0f bd c0 1a 33 bc b0 cf cc bb
       0.02054115 -0.034964755 -0.010931671 -0.006250344
0001e0 78 6a 13 bd 6f 1a 89 bb 64 0b b2 3b e5 c0 38 bc
       -0.03599021 -0.0041840593 0.005433487 -0.011276458
0001f0 d9 86 5b 3c 31 43 13 3d 1d 17 31 bd 58 5d e6 bc
       0.013398849 0.03595275 -0.043234933 -0.028120682
000200 1d 89 30 3c bd d7 39 bd 43 c6 06 bd 4a 80 06 bd
       0.010774878 -0.04537176 -0.03290392 -0.03283719
000210 39 88 6f bb 6c ae 50 bd 42 89 aa 3a cb 98 0b bd
       -0.00365497 -0.05094759 0.0013010877 -0.03408126
000220 83 c6 2b bd 1d 50 ab 3c 93 05 50 bd 65 42 3e 3c
       -0.041937362 0.020912224 -0.050786566 0.011612509
000230 02 4f bb 3a e3 51 41 bd 39 3a 2c 3d b1 24 8d 3c
       0.0014290514 -0.047197234 0.042047713 0.01722941
000240 45 9c c0 bc ac f8 3e 3d f4 8a bd bc 17 b9 30 3d
       -0.023512015 0.04662387 -0.023137547 0.043145265
000250 34 00 a5 3c 5c 93 11 3d cd 5c db 3c 07 99 31 bd
       0.020141698 0.035540923 0.02677765 -0.04335883
000260 4a c7 20 3d fd 14 26 bd a3 0b 3d bd 5a 64 ed bc
       0.039252557 -0.04054736 -0.046153676 -0.028978515
000270 d1 9e 4f 3c 40 53 cb bb f0 cd 0f 3d c6 e3 9c 3c
       0.012672142 -0.0062049925 0.035108507 0.01915158
000280 a5 42 2c bd 15 af 8b 3a 82 65 41 bd 0b d7 81 bc
       -0.042055745 0.0010657037 -0.047215946 -0.01584961
000290 02 6a 68 3b 80 10 7a bc d8 cf b8 bb 9f 68 4d 3d
       0.0035463576 -0.015262723 -0.0056400113 0.050148603
0002a0 ce 42 ec b9 9c 52 ba bb e0 eb 27 bd 79 44 83 bc
       -0.000450632 -0.0056861173 -0.040996432 -0.016023861
0002b0 19 d1 33 bd 23 03 f7 3c 16 3b 82 3c ca 47 1f 3d
       -0.043900583 0.030152863 0.015897315 0.038886823
0002c0 be ee e6 3b 6c 33 bd 3c 42 36 cd 3c 24 54 07 bd
       0.0070475033 0.023095809 0.025050286 -0.033039227
0002d0 55 d4 79 bc 64 b6 d0 bc d2 cf 81 3c ba c4 51 bc
       -0.015248378 -0.025477596 0.015846167 -0.012803251
0002e0 7b 8a 8a 3c 55 ca 06 bd f1 f4 15 3d ab 8e 10 3d
       0.016911736 -0.032907803 0.036610547 0.03529231
0002f0 88 42 ce 3c c0 16 b1 bc 9e 8e 0e bc e3 c9 32 3d
       0.025178209 -0.021617293 -0.008700995 0.043649565
000300 c1 3d 9e 3c 6a 23 50 bd 60 ef 29 3d 39 f5 dd bb
       0.019316556 -0.050815023 0.04148805 -0.0067736176
000310 0f 80 13 bd 27 fe 42 3c 79 f7 8a bc c2 0f f6 bc
       -0.036010798 0.011901415 -0.016963707 -0.03003681
000320 b1 dd 32 bc 56 99 96 b9 ea 5a 23 bd 46 d8 15 bd
       -0.010917113 -0.00028724474 -0.039881624 -0.036583208
000330 e9 cf 8f 3c 45 fd 84 3c 52 f2 7f bc 16 a7 13 3d
       0.017555194 0.01623405 -0.0156217385 0.036048017
000340 d6 85 46 bc 14 ff 5b 3c af 10 a6 bc 3a 00 01 3d
       -0.01211687 0.013427515 -0.020271627 0.031494357
000350 22 0d 39 bc e7 6f 33 bd 44 72 7d bc d4 93 de 3a
       -0.011294635 -0.04380789 -0.015469138 0.0016981312
000360 b9 0e 4b bd 4d 29 a7 bc a3 f9 d5 bc 56 0d a7 3c
       -0.049574587 -0.020405436 -0.026120013 0.020392101
000370 99 4a 0e 3d c9 4e 44 3d 8d 17 49 3d 50 27 0b bd
       0.03473911 0.047926698 0.049094725 -0.03397304
000380 71 be 34 3d 76 e2 2e 3d 7e 08 2a 3d 5c ab a1 bc
       0.04412693 0.04269644 0.041512005 -0.01973503
000390 a0 bc 0d bc 22 f6 ce 3c 3f d4 7c bc d6 f0 46 bd
       -0.008650929 0.02526385 -0.015431463 -0.048569523
0003a0 af e6 53 3c 5f c3 0c bd b9 3b 17 3d ad 96 50 3c
       0.012933417 -0.034366008 0.03692219 0.012731236
0003b0 14 94 4c 3d b0 fd 44 ba 2c 02 bf 3c 3b 6e 0a bd
       0.049945906 -0.0007514609 0.023316465 -0.03379653
0003c0 5e c9 b7 3c 4b 5c 43 bd 4d a8 2b bd 15 9c 8c bc
       0.022434887 -0.04769544 -0.04190855 -0.01716427
0003d0 3d e2 95 3c 30 ba 1b bc 88 61 2a bc 4b 2f 29 bd
       0.018296355 -0.00950484 -0.01039923 -0.041304868
0003e0 f1 35 4d 3d b7 10 7e bc 73 f2 92 bb 02 26 7a bc
       0.05010027 -0.015506915 -0.0044844686 -0.015267851
0003f0 fa c6 0b bd 10 07 c1 3c 8f 32 2d 3d bc 5b 05 bd
       -0.034125306 0.023562938 0.042284545 -0.032558188

layers.2.query_encoder.bias f4 [32]
000000 8a 8f 41 3d 19 4a a0 3c a3 82 ee 3a d0 3d 3b bc
       0.04725603 0.019566583 0.0018196892 -0.0114283115
000010 eb 5a 06 3d ee 25 bf 3c d5 0f db bc 6e 94 4d bd
       0.03280155 0.023333516 -0.026740948 -0.05019038
000020 ad bd 86 bc 57 93 20 bd 5e be 13 3d f5 2e 1f bd
       -0.016447866 -0.039203014 0.03607022 -0.03886314
000030 da 9c 36 bd 54 0e 16 bc 6f 5f 1c 3d 13 d3 58 bc
       -0.04458318 -0.0091586895 0.03817695 -0.013233918
000040 d9 f5 bd 3c 61 b1 26 3a b0 f0 49 3d 8d ed 24 3b
       0.023188518 0.0006358829 0.049301803 0.0025166005
000050 e8 84 2f bd dc 1a cc 3c 21 a5 f5 3c 6f 42 28 bd
       -0.04285136 0.024915151 0.029985966 -0.04107898
000060 77 f3 11 bd 25 7f 09 bd 72 c4 1f 3d 5e 45 83 3a
       -0.035632577 -0.03356852 0.039005704 0.001001518
000070 a9 f5 03 bd 84 89 10 3d b0 60 2e 3d 85 43 2b 3b
       -0.0322167 0.035287395 0.042572677 0.0026132774
